…
[2023-06-29 13:48:54,459][1319062] Setting fixed seed 3
[2023-06-29 13:48:54,468][1319062] Using GPUs [0] for process 0 (actually maps to GPUs [0])
[2023-06-29 13:48:54,468][1319062] Initializing actor-critic model on device cuda:0
[2023-06-29 13:48:54,469][1319062] RunningMeanStd input shape: (1,)
[2023-06-29 13:48:54,516][1319062] Created Actor Critic model with architecture:
[2023-06-29 13:48:54,516][1319062] ActorCriticSharedWeights(
  (obs_normalizer): ObservationNormalizer()
  (intrinsic_reward_normalizer): RunningMeanStdInPlace()
  (encoder): MiniHackEncoder(
    (crop): Crop()
    (embed): Embedding(5976, 64)
    (embed_blstats): Sequential(
      (0): Linear(in_features=27, out_features=64, bias=True)
      (1): ReLU()
      (2): Linear(in_features=64, out_features=64, bias=True)
      (3): ReLU()
    )
    (extract_crop_representation): Sequential(
      (0): Conv2d(64, 16, kernel_size=(3, 3), stride=(1, 1), padding=(1, 1))
      (1): Sequential(
        (0): ELU(alpha=1.0)
      )
      (2): Conv2d(16, 8, kernel_size=(3, 3), stride=(1, 1), padding=(1, 1))
      (3): Sequential(
        (0): ELU(alpha=1.0)
      )
    )
    (char_lt): Embedding(256, 16, padding_idx=0)
    (conv1): Conv1d(16, 32, kernel_size=(7,), stride=(1,))
    (conv2_6_fc): Sequential(
      (0): ReLU()
      (1): MaxPool1d(kernel_size=3, stride=3, padding=0, dilation=1, ceil_mode=False)
      (2): Conv1d(32, 32, kernel_size=(7,), stride=(1,))
      (3): ReLU()
      (4): MaxPool1d(kernel_size=3, stride=3, padding=0, dilation=1, ceil_mode=False)
      (5): Conv1d(32, 32, kernel_size=(3,), stride=(1,))
      (6): ReLU()
      (7): MaxPool1d(kernel_size=3, stride=3, padding=0, dilation=1, ceil_mode=False)
      (8): Flatten()
      (9): Linear(in_features=96, out_features=32, bias=True)
      (10): ReLU()
      (11): Linear(in_features=32, out_features=32, bias=True)
    )
    (fc): Sequential(
      (0): Linear(in_features=2144, out_features=256, bias=True)
      (1): ReLU()
      (2): Linear(in_features=256, out_features=256, bias=True)
    )
  )
  (core): ModelCoreRNN(
    (core): LSTM(256, 128)
  )
  (decoder): MlpDecoder(
    (mlp): Identity()
  )
  (critic_linear): Linear(in_features=128, out_features=1, bias=True)
  (action_parameterization): ActionParameterizationDefault(
    (distribution_linear): Linear(in_features=128, out_features=8, bias=True)
  )
)
[2023-06-29 13:48:54,649][1319089] Worker 11 uses CPU cores [11]
[2023-06-29 13:48:54,732][1319085] Worker 5 uses CPU cores [5]
[2023-06-29 13:48:54,739][1319083] Worker 1 uses CPU cores [1]
[2023-06-29 13:48:54,747][1319087] Worker 9 uses CPU cores [9]
[2023-06-29 13:48:54,754][1319084] Worker 7 uses CPU cores [7]
[2023-06-29 13:48:54,759][1319082] Using GPUs [0] for process 0 (actually maps to GPUs [0])
…
